feedforwardnet.pth (torch, 816015 bytes, 4 tensors)

dense_layers.0.weight f4 [256, 784]
0	0x3ad55cc0	0.0016278252
1	0xba4634c0	-0.0007560961
2	0xbcb5949a	-0.022165585
3	0x3c47e980	0.012201667
4	0x3cedc532	0.029024694
5	0xbbd2c230	-0.0064318404
6	0x3c8612e0	0.016366422
7	0xbb7377b0	-0.0037150197
8	0xbbf472d4	-0.0074599776
9	0x3cc5379a	0.024074364
10	0xbbf75c1c	-0.007548822
11	0xbc4c2d2e	-0.012461944
12	0xbc2fed85	-0.010737781
13	0x3c5684c0	0.0130931735
14	0xbd0b6564	-0.03403224
15	0x3c60c5b4	0.013719011
16	0xbcddbd8c	-0.027067922
17	0x3ca7a392	0.020463739
18	0xbc34fcaa	-0.011046568
19	0x3c518234	0.0127873905
20	0x3ce64ee6	0.028113794
21	0x3d0e7f07	0.03478911
22	0x3cf9cb8e	0.03049257
23	0x3d065bd3	0.032802414
24	0xbc9e8e70	-0.019355029
25	0x3be56b68	0.007001329
26	0x3c2c6db8	0.010524206
27	0x3cebb6b2	0.02877364
28	0xbc714392	-0.014725583
29	0x3c6ddd80	0.014518142
30	0x3d0a92c3	0.03383137
31	0x3d00390f	0.031304415
32	0xbc9fa9f4	-0.01949022
33	0x3d05eae5	0.032694716
34	0x3db32ec0	0.08749151
35	0x3da58281	0.08081532
36	0x3dac7a42	0.08421756
37	0x3d51bc77	0.051205125
38	0x3dab4a4c	0.083637804
39	0x3d41fb84	0.047359005
40	0x3dce6198	0.10077208
41	0x3d818a30	0.06325185
42	0xbd4bb8e0	-0.049736857
43	0x3bda57d3	0.0066633015
44	0x3ce53430	0.027978987
45	0x3d4d9ab0	0.05019635
46	0x3e00cc9d	0.12578054
47	0x3e0b2f0d	0.13592167
48	0x3dfd1b8d	0.123587705
49	0x3d2b751c	0.04185973
50	0x3caa32c5	0.020776162
51	0xbb500431	-0.003174078
52	0x3c509628	0.012731113
53	0xbb9ffb24	-0.004882233
54	0xbc85639e	-0.016282853
55	0x3bca6c60	0.00617747
56	0x3d013475	0.031544168
57	0x3bbca198	0.005756568
58	0x3cb848af	0.022495596
59	0x3d16edd4	0.036847904
60	0x3db30d35	0.087427534
61	0x3cbe181d	0.023204857
62	0x3dcc4881	0.099747665
63	0x3df09470	0.11747062
64	0x3d627f55	0.055297215
65	0x3b19e6c4	0.0023483494
66	0xbc0cb32b	-0.008587639
67	0x3da40bc9	0.0801006
68	0x3cae77c0	0.021297336
69	0x3c6f1261	0.014591784
70	0xbc0a6acb	-0.008448313
71	0xbca01934	-0.019543268
72	0x3d0ef0c9	0.0348976
73	0x3dcf3095	0.10116688
74	0x3e13e3ab	0.14442317
75	0x3dd7231d	0.10504744
76	0x3dc63122	0.0967734
77	0x3d99e3dc	0.07514164
78	0x3dead2d3	0.11465993
79	0x3dc1973d	0.094526745
80	0x3c807bfa	0.015684117
81	0xbd94a2fb	-0.072576486
82	0xbc5cf7ca	-0.013486812
83	0x3c493238	0.0122800395
84	0xbcc2e563	-0.02379102
85	0xbca3c115	-0.01998953
86	0xbe0eba42	-0.13938239
87	0x3d6b7e9a	0.057493784
88	0x3d89670d	0.067091085
89	0x3df98d13	0.12185111
90	0x3dc1ad05	0.09456829
91	0x3e139436	0.14412007
92	0x3d911738	0.07084507
93	0x3bf95621	0.0076091443
94	0x3d2d7d21	0.04235566
95	0x3b8aa54c	0.0042311307
96	0x3c5242b9	0.012833291
97	0x3b4a50b2	0.0030870852
98	0xbdcb8053	-0.09936585
99	0xbdb6ef2f	-0.089323394
100	0xbd9da13f	-0.07696771
101	0x3d78acf1	0.060711805
102	0x3daabc8f	0.08336746
103	0x3de0a34a	0.10968645
104	0x3e4e66ac	0.20156354
105	0x3e3771b8	0.17914474
106	0x3d4d5937	0.05013391
107	0x3dba00e0	0.09082198
108	0x3d60f3a6	0.05491986
109	0xbe0f5ea2	-0.14000943
110	0xbdda8bd9	-0.10671205
111	0xbcd6a100	-0.026199818
112	0xbd0486dc	-0.032355174
113	0xbc9dfa6d	-0.019284451
114	0xbdef45ee	-0.1168326
115	0x3d3a4aa2	0.04548133
116	0x3d80be2a	0.06286271
117	0x3de6dd93	0.11272731
118	0xbbe7f791	-0.0070790728
119	0x3cc2bdda	0.023772169
120	0x3c4a656e	0.012353284
121	0xbd40b0c0	-0.047043562
122	0xbdc6e286	-0.09711175
123	0xbdc80866	-0.09767227
124	0xbd04ac9e	-0.032391183
125	0xbbc9d7f0	-0.006159775
126	0xbc861bd6	-0.016370695
127	0x3becdb2a	0.007228275
128	0x3c2b4b39	0.010454946
129	0x3d055600	0.03255272
130	0x3d2e09fb	0.042489987
131	0x3c910a94	0.01770524
132	0x3d06b3b6	0.03288623
133	0x3dac099d	0.08400271
134	0x3da94a1b	0.082660876
135	0x3d92e135	0.07171861
136	0xbdca99a3	-0.09892585
137	0x3d074178	0.03302142
138	0xbdb34ace	-0.08754502
139	0xbcc8166b	-0.024424752
140	0x3b6f1e90	0.0036486723
141	0x3cda83dc	0.026674204
142	0xb9f5cc62	-0.0004688232
143	0xbc76c92c	-0.015062612
144	0x3c995fe9	0.018722491
145	0x3dc3a6f4	0.09553328
146	0x3d16c50f	0.036809023
147	0x3cee9ebc	0.029128425
148	0x3d22b539	0.03972361
149	0xbd3d3e78	-0.046202153
150	0xbc736dd3	-0.014857727
151	0xbe127b9d	-0.14304967
152	0xbd84a883	-0.064774536
153	0x3d9f68e7	0.077836804
154	0x3d8dbf70	0.069212794
155	0x3dcb89f2	0.0993842
156	0x3e1e65af	0.15468477
157	0x3de876f7	0.11350816
158	0x3df581b3	0.11987629
159	0x3d8bc297	0.068242244
160	0x3c94e22b	0.018174252
161	0xbcc81ab3	-0.024426794
162	0x3d206ad7	0.03916439
163	0x3dfd1ebf	0.1235938
164	0x3c7b67e7	0.0153445965
165	0x3da52e3f	0.08065461
166	0x3d122b99	0.03568611
167	0x3ca11092	0.019661222
168	0xbc41a8a0	-0.0118199885
169	0x3d88628e	0.06659423
170	0xbdba9ef3	-0.091123484
171	0x3d94ddf2	0.07268895
172	0x3e004aeb	0.12528579
173	0x3e37dbb2	0.17954901
174	0x3e1ebfd8	0.1550287
175	0x3d029774	0.03188272
176	0xbcac5cbd	-0.021040315
177	0x3cac0124	0.020996638
178	0xbc1de2b8	-0.0096365735
179	0x3d4c7ba6	0.049922608
180	0x3e04f680	0.12984657
181	0x3db0517f	0.08609294
182	0x3de20cb0	0.11037576
183	0x3e2167fc	0.15762323
184	0x3df398d4	0.11894384
185	0x3d991168	0.07474023
186	0x3dc0f323	0.09421375
187	0x3dc95f13	0.09832587
188	0xbb3bb3f4	-0.0028641196
189	0xbca1bd9d	-0.019743735
190	0x3c89dfe2	0.016830388
191	0x3c32856a	0.010896066
192	0x3e574752	0.210233
193	0x3e979019	0.29602125
194	0x3e2927c9	0.16519083
195	0x3d1d7330	0.03843993
196	0x3d10f7ac	0.03539245
197	0x3c20320f	0.00977756
198	0xbdca9659	-0.09891958
199	0x3d8e19fb	0.06938549
200	0x3dfa6082	0.12225439
201	0x3de19e47	0.11016517
202	0xbb95adb5	-0.0045678266
203	0x3b7725ac	0.0037711663
204	0xbd796ce4	-0.06089486
205	0xbcf52fbd	-0.02992999
206	0x3bdbb634	0.00670507
207	0x3d6bff25	0.05761637
208	0x3da448c4	0.080216914
209	0x3ddce3b8	0.107856214
210	0x3e3fcac6	0.18729696
211	0x3dda5b52	0.10661949
212	0x3db3ef12	0.087858334
213	0x3d8e1d93	0.069392346
214	0x3d184923	0.037179124
215	0x3dcff804	0.10154727
216	0xbcf9af43	-0.03047908
217	0xbcf3aacf	-0.029744534
218	0xbbd2d621	-0.0064342176
219	0x3d86b7d0	0.06578028
220	0x3d28ba4b	0.041193288
221	0x3e355593	0.17708425
222	0x3e072a95	0.13199838
223	0xbcd515f7	-0.02601145
224	0x3b3f56db	0.0029196057
225	0x3c9474aa	0.018122036
226	0x3d1eeb81	0.038798813
227	0x3d18b34f	0.037280377
228	0x3d40891e	0.047005765
229	0xbd077ace	-0.0330761
230	0xbd9ff512	-0.07810415
231	0xbcd04483	-0.025423294
232	0xbe164b23	-0.146771
233	0xbdbd3f89	-0.09240634
234	0xbda993d4	-0.08280149
235	0xbd0e3253	-0.03471596
236	0xbd8b4922	-0.06801058
237	0x3b66ed7d	0.003523677
238	0x3d8087cc	0.06275901
239	0x3d23c247	0.0399802
240	0xbc3bbed2	-0.011459069
241	0xbdaa9a75	-0.083302416
242	0xbe2b73f5	-0.16743453
243	0xbe41121f	-0.18854569
244	0xbe0590a7	-0.13043462
245	0xbe25bb19	-0.16184653
246	0xbdcdd261	-0.10049892
247	0xbdfafdd7	-0.12255447
248	0xbda9ba10	-0.08287442
249	0x3cc2bfb3	0.02377305
250	0x3d9bc5d2	0.076060906
251	0x3cbad623	0.022807186
252	0x3d4ea4c3	0.050450098
253	0x3d5cf744	0.05394675
254	0xbc939c5d	-0.018018896
255	0xbda52a6d	-0.08064733

dense_layers.0.bias f4 [256]
0	0x3bdb883f	0.0066995914
1	0x3e38e945	0.18057735
2	0x3b0d1994	0.0021530138
3	0x3d94f6cf	0.072736375
4	0xbdaec49a	-0.085335925
5	0x3a409a08	0.0007347171
6	0xbde68d56	-0.112574264
7	0x3d237b42	0.03991247
8	0x3d62fcfe	0.055417053
9	0xbdf6119b	-0.12015077
10	0x3e49d48d	0.19709988
11	0xbcee7f7c	-0.029113524
12	0xbc3ee4c4	-0.011651222
13	0x3d34eae0	0.044169307
14	0x3c026a6e	0.007959945
15	0x3e28dc93	0.16490392
16	0xbd40e30b	-0.047091525
17	0x3d7c3acd	0.061579514
18	0xbd306f6c	-0.04307501
19	0xbb69a5ff	-0.003565192
20	0x3d2478fe	0.04015445
21	0xbd74e0c5	-0.05978467
22	0x3d1a4ffd	0.03767394
23	0xbbc0b97f	-0.005881488
24	0xbd1e80f4	-0.038697198
25	0xbcfa62dd	-0.03056472
26	0x3e4aef2a	0.19817796
27	0x3dc03ffe	0.093872055
28	0x3d6b8664	0.05750121
29	0xbcbb16c8	-0.022838011
30	0x3ce74a9d	0.02823382
31	0x3e066655	0.13124974
32	0x3def66c3	0.11689522
33	0x3d94f452	0.07273163
34	0x3dbe2393	0.09284129
35	0xbb38c2af	-0.0028192212
36	0xbbfec049	-0.007774387
37	0x3e1fcea2	0.15606168
38	0x3e209ef4	0.15685636
39	0x3bbda16c	0.0057870653
40	0x3da58ccb	0.08083495
41	0x3d048345	0.03235175
42	0xbc1746b2	-0.009233164
43	0xbd23d6ae	-0.039999656
44	0x3ceb5e4c	0.028731488
45	0xbdb48a58	-0.088154495
46	0xbd43b4a7	-0.047779705
47	0xbd9504d1	-0.07276309
48	0x3c4ce941	0.012506784
49	0x3da30bb2	0.07961215
50	0x3ba33817	0.0049810517
51	0x3d2bd0a5	0.041947026
52	0x3dd2a058	0.102844894
53	0xbd9ceab4	-0.076619536
54	0x3dbb684f	0.09150755
55	0x3db961e6	0.09051876
56	0x3a94c84b	0.0011351196
57	0x3e1a9ec5	0.15099628
58	0x3de94cdc	0.11391613
59	0x3d337193	0.043809485
60	0x3dfc68a9	0.1232465
61	0x3be9f0d9	0.007139307
62	0xbc3a08c9	-0.011354634
63	0xbc413553	-0.011792499
64	0x3cc2d1a7	0.02378161
65	0x3d862e9d	0.065518595
66	0x3d8eac35	0.0696644
67	0xbd8f197b	-0.06987282
68	0x3d627f4a	0.055297174
69	0x3e0894f0	0.13338065
70	0xbc4f6da9	-0.012660422
71	0x3df7cc3e	0.12099503
72	0x3d595bb1	0.05306596
73	0x3d208767	0.03919163
74	0x3ce6f6da	0.02819388
75	0xbdadcfdd	-0.084869124
76	0x3db7390f	0.0894643
77	0x3da2879a	0.0793602
78	0x3dc2a2ca	0.09503706
79	0x3d639546	0.05556228
80	0x3d906947	0.0705133
81	0x3c51a4b9	0.012795621
82	0x3d178772	0.036994405
83	0xbd6cb79d	-0.057792295
84	0x3d3c82f4	0.046023324
85	0xbd7028b0	-0.058632553
86	0xbd80f6d3	-0.06297078
87	0xbd816ac0	-0.06319189
88	0x3bfb6075	0.0076714107
89	0x3d5a66eb	0.053320806
90	0xbde8127b	-0.1133165
91	0x3e13b3d5	0.14424069
92	0x3d544cd7	0.051831093
93	0x3daa3f73	0.08312883
94	0xbdccb04b	-0.09994563
95	0xbd158bd0	-0.03651029
96	0xbd18215a	-0.03714118
97	0x3da74ece	0.08169328
98	0x3db4e52a	0.08832772
99	0xbd9bd0ec	-0.07608208
100	0xbcc237c8	-0.02370824
101	0x3dfc2941	0.12312556
102	0x3e117822	0.14205983
103	0x3d17c014	0.037048414
104	0x3cac31e8	0.02101989
105	0x3e43674c	0.19082373
106	0xbd7138ec	-0.058892176
107	0xbc5aa49a	-0.013344908
108	0x3d50dfaf	0.05099457
109	0xbd2829c8	-0.04105547
110	0x3ceac8f3	0.028660273
111	0x3d9281b6	0.07153647
112	0x3da8cdc3	0.08242371
113	0xbde12d54	-0.10994974
114	0x3e51ce82	0.20488933
115	0x3d054078	0.032532185
116	0xbb49601d	-0.0030727454
117	0xbd0fbd02	-0.03509236
118	0xbd22d6d4	-0.039755657
119	0xbdb57c1d	-0.08861563
120	0xbc514b3f	-0.012774288
121	0xbd260865	-0.04053535
122	0x3d7fdd6e	0.06246703
123	0x3dd7d76c	0.10539135
124	0x3d824213	0.06360259
125	0x3ce7dcd1	0.028303536
126	0xbd841ad6	-0.06450431
127	0x3da05ad2	0.078298226
128	0x3d324334	0.04352112
129	0x3bb3bd28	0.0054851957
130	0xbd715bfa	-0.058925606
131	0x3e057e22	0.13036397
132	0x3c31f83c	0.010862406
133	0x3ac6cce4	0.0015167263
134	0xbde0226a	-0.10944064
135	0xbd2fd953	-0.042931866
136	0x3da0332a	0.07822259
137	0x3d0d6a3e	0.03452515
138	0x3d7e2b4a	0.062053002
139	0x3d12ca32	0.03583736
140	0x3dc00324	0.09375599
141	0xbd4a7f6a	-0.049437918
142	0xbcd2db1f	-0.02573925
143	0x3cced76b	0.025249204
144	0xbdb17a31	-0.08665884
145	0x3d8dd972	0.0692624
146	0xbd854640	-0.0650754
147	0x3e0745a1	0.13210155
148	0x3dbe9d02	0.093072906
149	0xbd9b3dd7	-0.075801544
150	0xbd115970	-0.035485685
151	0x3d9a1833	0.07524147
152	0x3e315c4c	0.17320365
153	0x3c836bcd	0.016042614
154	0x3d55dc8d	0.052212287
155	0xbc37444e	-0.011185719
156	0xbd35dfcc	-0.044402882
157	0xbdef5719	-0.116865344
158	0x3d7df58f	0.06200176
159	0xbb7a57d0	-0.0038199313
160	0xbd56cfc6	-0.052444242
161	0x3e028c1c	0.1274876
162	0x3e21fb54	0.1581853
163	0xbd28cf97	-0.041213598
164	0x3dbe422e	0.092899665
165	0xbdc67ead	-0.0969213
166	0x3d944562	0.07239796
167	0xbd86fc7a	-0.06591125
168	0xbd330ce6	-0.043713473
169	0x3e74ee82	0.23919109
170	0x3b3b4ec2	0.002858088
171	0x3d61f423	0.055164468
172	0x3d6389f3	0.05555148
173	0x3cd38f1a	0.025825072
174	0x3cfa0dd3	0.03052417
175	0x3cf0cf9f	0.029395876
176	0xbbe3fce9	-0.0069576395
177	0x3d1a77d7	0.037711944
178	0x3da7dca4	0.08196381
179	0x3d2bb4b2	0.04192037
180	0xbb58b432	-0.003306639
181	0x3d9d5dbe	0.076838955
182	0x3c6678a4	0.014066849
183	0xbc8e961c	-0.017405562
184	0xbdf5fd27	-0.120111756
185	0xbd00e3e6	-0.03146734
186	0x3da9f1db	0.082980834
187	0x3d91180c	0.07084665
188	0xbcde4cc1	-0.027136208
189	0x3d8959a8	0.06706554
190	0x3df87ad1	0.121328
191	0x3dc97005	0.09835819
192	0x3d959b03	0.07304957
193	0x3c777cd2	0.015105443
194	0x3d43dda5	0.0478188
195	0x3bda6a12	0.0066654766
196	0xbcec65bc	-0.028857104
197	0x3d6b8599	0.057500456
198	0x3da352dc	0.079747885
199	0xbd32589d	-0.04354154
200	0x3d8e24ea	0.069406345
201	0x3c329d20	0.010901719
202	0xbd780b38	-0.060557574
203	0x3d6b470f	0.057440814
204	0x3db82917	0.08992212
205	0x3d113ac7	0.035456445
206	0xbd092f41	-0.03349233
207	0xbd537fb8	-0.051635474
208	0xbd84de14	-0.064876705
209	0x3e2dcec0	0.169734
210	0xbde2b385	-0.11069397
211	0xbccac485	-0.024751911
212	0xbd49f19b	-0.04930268
213	0x3dee0635	0.11622278
214	0x3d6fe69d	0.05856954
215	0x3dd5638b	0.10419377
216	0x3e0a6464	0.13514858
217	0x3c7f3d67	0.015578604
218	0x3d797f58	0.06091246
219	0xbd2907f0	-0.041267335
220	0xbcfd1e0b	-0.030898115
221	0x3ddb3484	0.10703376
222	0x3e0a123e	0.13483521
223	0x3df5cb6e	0.12001692
224	0x3ceda60f	0.029009847
225	0xbe2a913e	-0.16656968
226	0x3dfbb335	0.122900404
227	0xbb211fed	-0.002458568
228	0xbc89c52a	-0.016817648
229	0x3da09c4a	0.0784231
230	0x3c339c04	0.01096249
231	0x3d3111d4	0.043229893
232	0x3cc2717d	0.023735756
233	0x3d0fe712	0.035132475
234	0xbcd783d6	-0.026307981
235	0xbd4f3d36	-0.050595485
236	0xbca73a36	-0.0204135
237	0xbc9cac85	-0.019125232
238	0x3c87379d	0.01650601
239	0x3b972ab1	0.0046132435
240	0xbd4ebbc8	-0.05047205
241	0x3d0596e6	0.03261461
242	0xbdcfb624	-0.101421624
243	0x3e0d2380	0.13783073
244	0x3daeec4d	0.085411645
245	0x3e2c88a5	0.16849001
246	0x3e26319e	0.16229865
247	0xbcc6f71d	-0.024287755
248	0x3cb6f610	0.022334129
249	0x3e592a3c	0.21207517
250	0xbda9a273	-0.08282938
251	0x3b49c74b	0.0030788954
252	0x3b772319	0.0037710129
253	0x3d0df468	0.034656912
254	0x3dab320a	0.083591536
255	0x3d46bd32	0.048520274

dense_layers.2.weight f4 [10, 256]
0	0xbc200df3	-0.009768951
1	0xbe121381	-0.14265253
2	0x3d95a356	0.073065445
3	0x3e0c3f29	0.13695969
4	0x3c5fb908	0.013654955
5	0x3ca702c2	0.020387057
6	0x3e226951	0.15860488
7	0xbebdd52a	-0.37076694
8	0xbe536aaa	-0.20646158
9	0xbd4d2f75	-0.050094087
10	0xbe49b3a7	-0.19697438
11	0xbeebe8e7	-0.46076128
12	0x3e0fa449	0.14027514
13	0x3d18d582	0.037312992
14	0xbe84e5e3	-0.2595664
15	0xbc162b6c	-0.009165626
16	0x3d2d39e6	0.042291544
17	0x3c548dbb	0.012973244
18	0xbd1fc492	-0.039005823
19	0xbece2ce7	-0.40268633
20	0x3d2b3c4d	0.041805554
21	0xbe1d3544	-0.1535235
22	0xbd7a3aa8	-0.061091095
23	0x3e1ccec1	0.15313245
24	0xbd10f402	-0.035388954
25	0x3dbb5421	0.09146906
26	0x3b8ad233	0.0042364835
27	0xbe857335	-0.26064458
28	0x3debf572	0.11521424
29	0x3d6b0069	0.057373438
30	0x3d74a838	0.05973074
31	0x3db25abd	0.08708713
32	0xbde26e45	-0.110561885
33	0x3c3b4d5f	0.011432021
34	0xbe14ffc3	-0.1455069
35	0x3e09a28a	0.1344091
36	0xbe6d40fd	-0.23169322
37	0xbd4baf16	-0.04972752
38	0xbcc55b02	-0.024091247
39	0xbf066bba	-0.5250813
40	0xbe87e79b	-0.26543888
41	0xbc3bd1b7	-0.011463574
42	0xbe367bf7	-0.17820726
43	0x3e2ffd03	0.1718636
44	0xbcf4ded7	-0.029891415
45	0xbcde4437	-0.027132137
46	0x3e619857	0.2203077
47	0x3d64f965	0.055901904
48	0xbdf2f20a	-0.118625715
49	0x3dd26e9d	0.10275004
50	0xbe5dcb5b	-0.21659605
51	0x3d1fa9c6	0.038980268
52	0x3e2916a4	0.16512543
53	0x3d5a48fd	0.053292263
54	0xbe460735	-0.19338687
55	0x3d6ae028	0.05734268
56	0x3e08fbf2	0.1337736
57	0x3e5cc340	0.21558857
58	0xbe5817b0	-0.21102786
59	0xbdc1a199	-0.094546504
60	0x3ce1848c	0.027529024
61	0x3dd997f3	0.10624685
62	0x3dee46d4	0.11634603
63	0xbe24acef	-0.16081594
64	0x3bbfecbd	0.005857079
65	0xbe660f90	-0.22466874
66	0xbded8466	-0.115975186
67	0x3ce9235d	0.028459245
68	0xbdd1dcf8	-0.102472246
69	0xbf29cc4a	-0.66327345
70	0x3e20a034	0.15686113
71	0xbe96ce0e	-0.29454082
72	0xbe4d4e92	-0.20049503
73	0x3e3b1f2c	0.1827361
74	0x3d0ba16b	0.034089487
75	0xbbef6fb7	-0.0073070186
76	0x3d5aac6f	0.0533871
77	0xbe1bba89	-0.15207876
78	0x3dd69e24	0.10479382
79	0x3e0bcbf0	0.13652015
80	0xbea4c835	-0.32183996
81	0x3de5fd88	0.11229998
82	0x3c5cb5d6	0.013471087
83	0xbebe4914	-0.3716513
84	0x3e37d96f	0.17954038
85	0x3e1240e2	0.14282563
86	0x3e0e07bf	0.13870142
87	0x3ccfd3ef	0.025369613
88	0xbe45c0e2	-0.1931186
89	0x3d902ec9	0.070401736
90	0x3e09501e	0.13409469
91	0xbec3e381	-0.3825951
92	0xbdcb76bf	-0.099347584
93	0xbe6a336c	-0.22871178
94	0x3c865fdd	0.016403133
95	0xbe897c2a	-0.26852542
96	0xbd530440	-0.051517725
97	0xbebb6b6d	-0.36605397
98	0x3da5fff8	0.08105463
99	0x3dff439c	0.12464067
100	0xbeb5f8b3	-0.35541305
101	0x3dc6c9d6	0.09706466
102	0xbe3cf8cb	-0.18454282
103	0x3df3510b	0.11880692
104	0x3d9bf26e	0.07614599
105	0xbe2046ec	-0.15652055
106	0x3da9e31e	0.08295272
107	0x3c9f7128	0.019463137
108	0xbe7c7a3e	-0.24656007
109	0xbe7dc0fc	-0.24780649
110	0xbf1276fb	-0.572128
111	0xbf0dba00	-0.5536194
112	0x3e12a44e	0.1432049
113	0xbe189e6d	-0.14904185
114	0xbed9381d	-0.42425624
115	0xbe853263	-0.26015005
116	0xbe22b26c	-0.15888375
117	0x3d05a531	0.032628242
118	0xbe1efd15	-0.1552623
119	0x3ce74f88	0.028236166
120	0xbdf71459	-0.12064428
121	0xbdbfdadb	-0.09367915
122	0xbf1d4ec8	-0.61448336
123	0x3e59ddb5	0.21275981
124	0x3ca3925e	0.019967254
125	0xbdc4cd7a	-0.09609504
126	0x3dc79afd	0.097463585
127	0x3e4df0bf	0.20111369
128	0xbefe8fc2	-0.49719054
129	0x3b204c2a	0.002445946
130	0x3dd33be2	0.10314156
131	0xbde48294	-0.11157718
132	0x3dadeb7b	0.0849218
133	0xbd812dd7	-0.063075714
134	0xbe1dcc44	-0.15409952
135	0xbbd1bf8d	-0.0064010085
136	0x3ce9df7d	0.02854895
137	0xbeb5707d	-0.35437384
138	0xbdba26bb	-0.090894185
139	0x3dd9c913	0.10634055
140	0x3dd3bf5d	0.10339234
141	0x3d24549c	0.040119752
142	0x3da9e163	0.08294942
143	0x3c7ed730	0.015554234
144	0x3ca3bd74	0.0199878
145	0x3d5e1843	0.054222357
146	0x3dbc8afd	0.092061974
147	0xbe27af0c	-0.16375369
148	0xbe5eb018	-0.21746862
149	0x3d1478a9	0.036247883
150	0x3c075ea4	0.00826231
151	0xbd458757	-0.048224773
152	0x3d4ae652	0.049536057
153	0xbe62fa92	-0.22165897
154	0xbdb5e40c	-0.08881387
155	0xbd452187	-0.048127677
156	0xbd4b20f6	-0.04959198
157	0x3db06b41	0.08614207
158	0x3db584cd	0.0886322
159	0x3dddfb3b	0.10838934
160	0xbd4c76a8	-0.049917847
161	0xbe131125	-0.14362009
162	0xbe162f08	-0.14666378
163	0xbd0d6bdc	-0.03452669
164	0xbeb3e01c	-0.3513192
165	0x3daa702b	0.083221756
166	0x3c2bb147	0.010479278
167	0x3d37d626	0.044881962
168	0x3dff0571	0.1245221
169	0xbaa002ba	-0.0012207844
170	0x3dbb8803	0.091568016
171	0x3dc17956	0.09446971
172	0xbe520093	-0.20508032
173	0x3df505f7	0.11964028
174	0xbd308d0e	-0.04310327
175	0x3c9d1abe	0.01917779
176	0xbba32bf0	-0.004979603
177	0xbe013909	-0.12619413
178	0x3dc0de2e	0.094173774
179	0x3cf77b0f	0.030210046
180	0x3e30667b	0.17226593
181	0x3d081a93	0.03322847
182	0x3dc24084	0.09484962
183	0xbeda67b0	-0.42657232
184	0x3e0b2568	0.13588488
185	0xbf0ba3a6	-0.5454658
186	0xbda27208	-0.07931906
187	0x3df838bb	0.121201955
188	0x3d8deec6	0.06930308
189	0xbdb74824	-0.089493066
190	0xbca6cdcf	-0.020361809
191	0x3db43ffa	0.08801265
192	0x3d55a696	0.05216082
193	0xbd25492f	-0.040352996
194	0x3debffb0	0.11523378
195	0xbe2206b5	-0.15822871
196	0x3e13d986	0.14438447
197	0x3e31176d	0.17294092
198	0x3dad8e6b	0.0847443
199	0x3bc3ac94	0.0059715007
200	0x3da379eb	0.079822384
201	0xbd3e9914	-0.046532705
202	0x3d13cfae	0.03608673
203	0xbda1d87b	-0.079026185
204	0xbe9756af	-0.29558322
205	0x3d73e08b	0.059540313
206	0x3def1104	0.11673167
207	0x3db601a7	0.08887034
208	0xbc00c535	-0.007859518
209	0xbc07486e	-0.008257015
210	0xbde5435e	-0.1119449
211	0x3d6aaa1c	0.057291135
212	0xbe822f42	-0.2542668
213	0xbe50a99c	-0.20377201
214	0xbe084531	-0.13307644
215	0x3d4a2cee	0.049359255
216	0x3decb3bc	0.11557719
217	0x3dcc7255	0.099827446
218	0xbe4aa877	-0.19790827
219	0x3e258af8	0.16166294
220	0xbe7c8983	-0.24661832
221	0xbe2b9e8a	-0.16759697
222	0xbe3d0bf5	-0.18461592
223	0xbe984753	-0.29741916
224	0xbe49ac19	-0.19694556
225	0x3d1e3058	0.038620323
226	0xbe06ccb8	-0.13164032
227	0xbd3cfb1d	-0.046137918
228	0x3d9b52c0	0.07584143
229	0x3e2bac28	0.16764891
230	0x3caec927	0.021336151
231	0x3dabf604	0.08396533
232	0xbe4ea3b9	-0.20179643
233	0x3df28ffc	0.11843869
234	0xbddc30c5	-0.107514895
235	0xbdb0cd23	-0.08632877
236	0x3d64a021	0.055816773
237	0xbdddcfcc	-0.1083065
238	0xbd4332ad	-0.04765575
239	0xbe0cbcff	-0.13743971
240	0xbdc7f6de	-0.09763883
241	0x3df5b7b4	0.11997929
242	0x3c1a3158	0.0094111785
243	0xbe5e3e36	-0.21703419
244	0x3d95e80f	0.07319652
245	0xbc77ea8c	-0.015131604
246	0x3e093c27	0.13401853
247	0xbe2e9867	-0.17050324
248	0xbcc5afc9	-0.024131672
249	0xbd586096	-0.052826487
250	0x3d80290d	0.0625783
251	0x3cf4d9a0	0.029888928
252	0xbd1146e5	-0.035468
253	0xbceb74bf	-0.028742192
254	0x3d9f8b84	0.07790282
255	0x3dac03b5	0.083991446

dense_layers.2.bias f4 [10]
0	0xbe039d1a	-0.12852898
1	0xbd742e74	-0.059614614
2	0xbabeff24	-0.0014571887
3	0xbd51de7c	-0.05123757
4	0x3d292f82	0.041305073
5	0x3d3689ae	0.044564895
6	0x3d20d7a6	0.03926816
7	0x3c9e0f2e	0.019294348
8	0xbdc2a503	-0.0950413
9	0xbce05756	-0.027385395
