trained_model.pth (torch, 494921 bytes, 10 tensors)

conv1.0.weight f4 [16, 1, 3, 3]
000000 e9 9d f4 bd 43 fd 48 3e 54 c5 9f 3b 7c 8b 7c be
       -0.119441815 0.19627862 0.0048758183 -0.24662584
000010 8e dc ef 3d 2c f1 67 bd bc 98 1b 3e 28 69 48 be
       0.11711989 -0.056626484 0.15194982 -0.19571364
000020 7c 97 34 bc fd 21 ac 3e d0 09 27 be d5 fc 77 be
       -0.011022445 0.3361968 -0.16312337 -0.24217542
000030 e1 aa 84 bd 99 d1 12 be 78 b0 8a 3e 48 87 3d 3c
       -0.06477905 -0.14337768 0.2708776 0.011567898
000040 3f df 2d 3e 2b 17 ab be 5d 4c 96 be 89 fa 8e bc
       0.16979693 -0.33416113 -0.29355136 -0.017453449
000050 31 d1 7d be 00 48 01 bd 70 16 a4 3d 8d 93 85 bd
       -0.24786831 -0.031562805 0.08012092 -0.06522284
000060 47 4f 95 3e 6a 64 9f bd fa 4c 4c be 09 cf 4f 3e
       0.29162046 -0.07782824 -0.19951239 0.20293821
000070 ea 05 93 3e 32 09 98 bd b7 a0 89 3d 35 68 f1 bc
       0.2871545 -0.07423629 0.06720107 -0.029468635
000080 16 99 48 be b0 b3 80 3d 9d d2 04 3e 10 11 ac 3e
       -0.19589648 0.06284273 0.12970968 0.33606768
000090 c1 9a 4f 3e 1f 69 7d bc af 05 fe 3d 6c 1c 6d be
       0.20273878 -0.015466957 0.12403428 -0.23155373
0000a0 cf 7e 6f bd de 5b 7d be b2 84 b1 3e bf 7a 51 be
       -0.058470543 -0.24742076 0.3467155 -0.2045698
0000b0 bf 42 91 bd e4 e9 c9 3c ff ac 9a 3e 1c fb eb bd
       -0.07092809 0.02464766 0.3021011 -0.11522505
0000c0 c6 06 9c 3e 18 fb bb bd e6 61 39 3e 93 7d 0c be
       0.30473918 -0.09178752 0.18103752 -0.13719778
0000d0 d4 30 ad 3e 60 c7 c4 3c a8 fd c4 bc 08 41 82 3e
       0.33826315 0.02402085 -0.024046734 0.2544024
0000e0 56 a6 28 3e 9d e7 8a be 56 28 69 3e ec 58 3e be
       0.16469702 -0.27129832 0.22769293 -0.18588609
0000f0 fb 99 e6 bd 49 db 39 3e 72 ca 31 3d cc c8 3b 3e
       -0.11259838 0.18150057 0.043405958 0.18338317
000100 66 d7 6e be 39 3f 9e be 27 8c db 3d 33 6f b0 3b
       -0.23324355 -0.3090761 0.10720091 0.0053843497
000110 3a e1 79 3c 5a aa 3e 3e 59 1d fd bc b2 95 93 3e
       0.015251452 0.18619671 -0.030897783 0.28825146
000120 92 c3 b8 be 80 8c b9 be 8a 97 68 be f1 c9 82 be
       -0.36086708 -0.36240005 -0.22714058 -0.25544694
000130 cf 54 16 bd c5 74 e5 bd b6 bc 02 be 89 7d 7d be
       -0.036701974 -0.11203913 -0.127673 -0.24754919
000140 f6 a5 70 be 12 06 99 bd 5a 27 84 3d c2 90 86 3e
       -0.23500809 -0.07471861 0.06452818 0.26282316
000150 1a a8 dd ba c6 bc ab bd da e6 49 3d 0f 04 cc bc
       -0.001691106 -0.08385615 0.049292423 -0.024904279
000160 51 d5 01 bd db 16 73 bd 1e 8e b8 3e 4d f9 5f 3e
       -0.031697575 -0.05934797 0.36045927 0.21872444
000170 9f 35 7d 3e 5c f5 87 be 85 36 1b 3e bd 40 44 be
       0.24727486 -0.26554382 0.15157516 -0.1916532
000180 54 b5 83 3e b9 36 bc 3d 4c cd de bc 04 6e 2b 3e
       0.2572428 0.09190125 -0.027197503 0.16741186
000190 35 e7 33 3d f0 e1 3f be e3 51 35 3e 47 c8 41 3e
       0.043921668 -0.18738532 0.17707019 0.18924056
0001a0 ff a9 68 3e 72 a1 f7 3d ec 44 54 be fc 01 37 3e
       0.22721098 0.1209134 -0.20729417 0.1787185
0001b0 37 77 7b 3e 4e 91 f9 3d 0c 91 b5 3d 6d 2e 5b 3d
       0.24557196 0.12185918 0.08865556 0.053511072
0001c0 11 c7 32 3e b2 57 ab 3e a7 63 65 bb 14 87 6f be
       0.1745875 0.33465344 -0.0035002024 -0.23391372
0001d0 6c d7 82 bd 1f 13 3a 3d 5c f2 b3 3e d1 7f 12 be
       -0.06388745 0.04542839 0.35145843 -0.1430657
0001e0 05 bc b9 3d 1c a7 a4 be 76 d0 5a be b4 5a 82 be
       0.09069065 -0.32158744 -0.21368584 -0.25459826
0001f0 3e 0f 87 3d bd 8e 3f 3d 3f 0c 1d 3e 0c 3f 2d 3d
       0.06594704 0.046766985 0.15336703 0.042296454
000200 3b 85 5e 3e 7f 5c 44 3e 88 d6 9a be 2b af 51 3e
       0.21730511 0.1917591 -0.302418 0.20476978
000210 03 29 a6 3d e1 40 55 3d a0 b8 14 3e 6d f4 f2 3c
       0.08113291 0.052063826 0.14523554 0.029657567
000220 ce 6e 32 3e 61 32 89 3e ae 47 30 3e 7d 44 96 be
       0.17425081 0.2679625 0.17214844 -0.29349127
000230 36 dd 16 bc 9c 2d 80 3e 69 df 4f 3e c9 06 94 3d
       -0.009208014 0.25034797 0.20300068 0.07227857

conv1.0.bias f4 [16]
000000 28 cc 86 3b 18 3b b5 3d 5d 59 44 3e 5c c4 f4 3b
       0.004113693 0.08849162 0.19174714 0.007469697
000010 8d 75 88 bd a8 a5 b6 bd ae ed 93 3c 63 d5 07 bd
       -0.06663046 -0.08918315 0.01805767 -0.033162486
000020 c9 a7 18 3e c8 88 2f 3e ec 93 e6 3c 93 cd b9 bd
       0.14907755 0.17142022 0.028146707 -0.09072413
000030 86 81 02 bc f0 95 14 be f2 46 e9 3d aa 97 23 3e
       -0.007965451 -0.14510322 0.11390485 0.15975824

conv2.0.weight f4 [32, 16, 3, 3]
000000 5e 04 ef bb 42 85 8c bd 6f d3 9a 3d 2f 58 2f bb
       -0.007294222 -0.068613544 0.07559859 -0.0026755442
000010 d9 fa dc bc 53 79 88 3c 2a e8 35 3d 6e b5 7c bd
       -0.026975082 0.016659414 0.044410862 -0.061696462
000020 5d bb 82 3d 83 5c 85 bd 58 36 47 bc 92 92 6c 3d
       0.06383393 -0.06511786 -0.012158953 0.057756968
000030 db a8 86 3a 95 e0 05 3d 76 d4 57 3d ee 61 45 3d
       0.0010273712 0.03268488 0.052692853 0.048189096
000040 05 03 0d 3d 51 45 0e bd d9 5e 80 3d e7 4c aa 3a
       0.034426708 -0.034734074 0.06268091 0.0012992889
000050 5c a9 7a bb 4c 65 00 3c 29 d0 a5 bd 9e 5c d8 3c
       -0.0038247919 0.007836651 -0.08096344 0.02641135
000060 42 4e 12 3c 88 e9 bd 3a cd b5 99 3d 6e 51 83 bd
       0.008929791 0.0014489153 0.07505379 -0.06412016
000070 0a b0 87 bb 9f 3b 7c bc e2 c6 a8 bd 42 64 ee 3c
       -0.0041408585 -0.015395074 -0.08241059 0.029100541
000080 9c 4b 56 3d 6f ab 79 bd b5 79 42 3d 6e 3f 1a bd
       0.0523182 -0.060954507 0.04747935 -0.037658148
000090 28 bf 1f bd 48 30 8d 3d 5e ab 30 3d 2c c6 9d 3d
       -0.03900066 0.068939745 0.04313218 0.07703814
0000a0 44 e1 61 bd e4 c9 8a 3d e4 2b ad 3d ec c7 96 3d
       -0.05514647 0.06776789 0.08455637 0.07362351
0000b0 74 19 20 bd e7 a2 81 3d af f9 04 bd 56 f4 72 bd
       -0.039086774 0.06329899 -0.03246468 -0.05931505
0000c0 d3 63 43 bd f7 38 80 3d 9b 9d 1f bc e7 55 67 bd
       -0.04770262 0.06260865 -0.009742166 -0.056478407
0000d0 6f 3f ed 3b 3b b5 1d bd 53 45 5d bd 0b cb 38 3d
       0.007240228 -0.038502913 -0.05402119 0.045115512
0000e0 79 66 80 bd 20 00 93 3d bd 1f 87 bd 26 d0 9d 3d
       -0.06269545 0.07177758 -0.065978505 0.07705717
0000f0 be 64 5e 3d bb 7e b9 bd d2 70 5b 3d 28 43 6c 3d
       0.054295294 -0.09057375 0.05357439 0.057681233
000100 de 7f f2 bc f3 44 ff bc cc 23 95 bd 54 5b 41 3d
       -0.029601987 -0.031160807 -0.07282218 0.047206238
000110 46 35 6f bd 14 14 27 bb b2 e6 f5 3c 49 42 e8 3b
       -0.058400415 -0.0025494145 0.03001723 0.00708798
000120 b0 ce c8 3b 8c d2 af bc 0a c8 14 3b 35 f2 34 bd
       0.0061281547 -0.021462701 0.002270224 -0.0441763
000130 c9 ea 28 be 3d 18 23 be 9c ae d3 3c a2 09 aa bb
       -0.16495813 -0.15927215 0.025840096 -0.0051891366
000140 40 3f 17 3c 60 b6 60 bd ce 0f 10 3d 3f 39 0c bd
       0.009231389 -0.054861426 0.035171323 -0.03423428
000150 27 64 63 3d 94 90 8f 3d 8f 24 9a 3d c4 1c bf bc
       0.055515435 0.07009998 0.07526504 -0.023329146
000160 13 72 90 bd 1f 59 35 3d 48 a9 36 3c a7 36 34 3b
       -0.07053008 0.044274446 0.011148758 0.0027498396
000170 7b dd 87 bd 49 c8 8a 3d 0a 1a 5c bd 68 99 09 3d
       -0.06634041 0.067764826 -0.05373577 0.033593565
000180 b6 9c 6d bd f5 73 30 bd e6 2e 88 3d 4c 2d 46 bd
       -0.05801078 -0.043079335 0.0664957 -0.048383042
000190 2f d2 f7 3c 17 b9 35 bc d1 a8 87 3d 7c 11 8f 3d
       0.03025159 -0.011091492 0.06623996 0.06985757
0001a0 8f 1c 9d 3d 18 34 89 3c 16 52 49 bc d8 f3 aa bd
       0.07671463 0.016748473 -0.012287637 -0.08347291
0001b0 69 a2 ee bb 42 ce 7f bd ae 0c 2b bd b8 eb 92 3d
       -0.0072825444 -0.062452562 -0.04176014 0.07173866
0001c0 19 ac 44 3c 80 36 a8 bd c8 39 90 bd 70 c2 44 3d
       0.012003922 -0.0821352 -0.07042271 0.048036993
0001d0 d1 52 74 bd 89 0f b0 3d ee 73 3a bd 79 68 45 3d
       -0.059649292 0.08596713 -0.045520715 0.048195336
0001e0 78 d4 84 bb 9e 9a 53 3d a8 68 01 bd 56 93 53 3b
       -0.0040536486 0.051661126 -0.03159395 0.0032283864
0001f0 22 d5 64 3c 4f 09 de ba b0 0a 09 3d 89 47 80 3d
       0.01396683 -0.001694003 0.033457458 0.06263644
000200 b8 de f4 3c e9 cd 9f bd 2d b3 91 3d d2 3c a3 bd
       0.029891357 -0.07802946 0.07114253 -0.07970585
000210 7a 22 e9 3b 86 6d 5a bd 86 6e 24 3d 57 29 88 3d
       0.0071147056 -0.053327106 0.040144466 0.0664851
000220 f2 ba 9a 3d 22 db 10 bd 2b a2 64 bd d8 f5 59 3d
       0.07555188 -0.03536523 -0.055818718 0.05321297
000230 2a 61 c8 bc c0 f0 1b 3d df 90 a8 bc f7 01 ed bc
       -0.024460394 0.038071394 -0.020576892 -0.028931601
000240 a4 f2 2e 3c 57 d4 47 3d 86 df 26 3d 37 dc 6e 3c
       0.010677967 0.048786487 0.040740512 0.0145788705
000250 a4 d0 b3 bc 26 7a 64 bd c8 f3 3c bd 88 96 b5 3c
       -0.021950074 -0.055780552 -0.046130925 0.022166505
000260 97 7c 17 3c c9 fe 3c 3d 48 d5 5a 3d 68 77 5a bc
       0.009246013 0.04614142 0.053426057 -0.013334133
000270 9e 85 86 bd 32 cc a0 3d 42 7e 2d 3d 1a 48 04 bd
       -0.06568454 0.07851447 0.042356737 -0.032295324
000280 74 b8 55 bc d8 e0 89 3c c8 d1 fb 3a a3 5b 4f 3d
       -0.013044465 0.016830847 0.00192123 0.0506245
000290 d8 66 dd bc 6e b5 03 3d a5 d7 68 bc c8 32 77 bd
       -0.027026579 0.032155447 -0.01421157 -0.060351163
0002a0 51 ad 7f bc ba 2a 03 3d 75 b3 82 bd ad 83 e5 3d
       -0.015605287 0.03202317 -0.06381885 0.11206756
0002b0 c8 e3 51 3d e2 ab ec 3d 4b 5b 50 3b 7e 9e 59 3d
       0.05124262 0.115562215 0.0031792696 0.053129666
0002c0 56 ba 2c 3d 96 fa a8 bd df b6 6a 3d 05 0f 78 bd
       0.04216989 -0.082509205 0.057303306 -0.0605612
0002d0 ab 00 b6 3d 57 93 db 3d a1 a4 0b 3d b8 02 28 3c
       0.08886846 0.10721462 0.03409255 0.010254554
0002e0 6f ab c5 bd 05 af 3e 3d e8 34 1a bc e3 2d 93 3d
       -0.09651839 0.04655363 -0.009412028 0.071864866
0002f0 a2 19 6f bd 0b 5a 35 3d b3 64 af 3d 06 81 03 3d
       -0.058374055 0.044275325 0.08564129 0.03210547
000300 66 5d c3 bd 59 9e 59 3c b0 e7 8a bd e9 05 36 bc
       -0.09539299 0.013282382 -0.06782472 -0.0111098075
000310 31 8f 8b bd 88 c9 1a bd 53 eb 1e 3c c7 84 9a bc
       -0.06814421 -0.03778985 0.00969966 -0.018862141
000320 51 92 7f 3d be a4 c1 ba 92 0b 20 bb a6 8a 5d bd
       0.062395398 -0.0014773828 -0.002442096 -0.054087304
000330 be f4 8a 3d b2 ff 5e bd 34 2c 27 3d 2e d3 d2 ba
       0.06784962 -0.05444307 0.04081364 -0.0016084665
000340 02 f0 14 3d 56 2a 4c 3d ca a2 39 3c 0b b1 a0 3d
       0.0363617 0.049845062 0.011330316 0.07846268
000350 1c d5 41 bc 05 5e c9 bc 2d 30 80 3d ae bf 0e bd
       -0.011830594 -0.024580965 0.06259189 -0.03485077
000360 76 a1 75 bd 19 83 01 be 61 8b a5 bd 41 be 48 3c
       -0.059968434 -0.12647666 -0.08083225 0.012252391
000370 04 c9 5a bd b6 af 66 3d ac aa e9 bc 1a cd bb 3d
       -0.05341436 0.056319915 -0.028523766 0.091699794
000380 e9 9a 1a 3d 45 89 9d bc 20 e9 79 3c 90 e8 2e ba
       0.03774539 -0.019230494 0.015253335 -0.0006672228
000390 08 fb 81 3d 55 0d 4e bd 2e 06 84 3c 56 fb 38 bd
       0.063467085 -0.050305683 0.016116228 -0.045161568
0003a0 f0 39 05 bd 1f d7 45 bd 63 ba c9 3d 51 bf 9a 3d
       -0.032525957 -0.04830086 0.098500036 0.07556022
0003b0 c8 3f f3 3d 5c f0 85 bd c6 53 a5 bd da 47 25 bd
       0.118774 -0.065399855 -0.08072619 -0.040351726
0003c0 a6 98 7a bc 2b 02 9a bd 8a 9f 76 bd 94 2c a3 3b
       -0.015295183 -0.07519945 -0.060210742 0.0049796794
0003d0 21 e2 b3 3d 83 ab 9e bc 01 b8 84 3d 35 b5 35 bd
       0.08783365 -0.019368893 0.064804085 -0.044362266
0003e0 8b ce a0 bc 4e e6 5c bd f5 97 11 3d a5 5c e2 3c
       -0.019629737 -0.053930573 0.03554531 0.027632067
0003f0 4c 27 94 3d ee 04 1c 3d c6 b5 36 bc 86 8a bb bd
       0.07234058 0.03809064 -0.011151737 -0.091572806

conv2.0.bias f4 [32]
000000 4c 5f 90 bd 05 19 ff 3b 1e d4 b7 bc 96 db bf bc
       -0.070494264 0.007784965 -0.022440013 -0.023420136
000010 7f ad 69 bc 20 67 86 3c cd 82 bf 3c 29 b8 3b 3c
       -0.014262556 0.016406596 0.0233778 0.011457481
000020 75 10 a7 bd d8 e4 17 bd 88 47 e8 3b 45 38 58 ba
       -0.08157436 -0.037083477 0.0070886053 -0.0008248131
000030 b8 85 ef 3c 59 a0 b7 bd 56 04 ff bc 7d bc 03 3d
       0.029238567 -0.08966131 -0.031129997 0.03216218
000040 ef 52 78 3c 76 13 be bc 60 28 ba bd a2 3c 15 bc
       0.015156492 -0.02320264 -0.09089732 -0.009108694
000050 76 de 81 bc ab 32 7c 3c d5 20 85 3c 1e 49 01 3d
       -0.015853148 0.01539294 0.016251007 0.03156387
000060 56 02 4b 3c f0 f8 83 bb 43 f7 99 bd dd bc 3e 3d
       0.012390694 -0.0040274784 -0.075178646 0.046566833
000070 8d 68 1a bd c9 d3 3a 3d 7c 7c 22 bd e0 f4 3d bd
       -0.037697364 0.04561213 -0.0396695 -0.04637611

conv3.0.weight f4 [64, 32, 3, 3]
000000 a0 56 39 bd b0 28 1b bc 05 39 3e bd a9 13 37 bd
       -0.045248628 -0.00947015 -0.046441097 -0.044696484
000010 be f8 5b 3d 3e 29 a0 bc 92 04 f0 3c d8 dd 11 bb
       0.053704016 -0.019550916 0.029299054 -0.0022257473
000020 20 72 0d bd c8 e6 5f bd 4e 6a d5 bc bd cc 23 3c
       -0.034532666 -0.05466345 -0.026051667 0.009997544
000030 3a 7f dd 3c 48 bf 26 3d 03 2e a1 3c 7e c2 09 3d
       0.027038205 0.040709764 0.01967526 0.033632748
000040 9f 71 8c 3d 68 a5 09 bd 7d 34 0f bd f4 9f f1 bc
       0.06857609 -0.03360501 -0.034962166 -0.029495217
000050 37 c2 12 bc 76 18 e7 bc 71 5e 3a 3d c6 8c d0 bc
       -0.008957437 -0.028209906 0.045500223 -0.025457751
000060 6b 54 6c 3d 02 95 a3 bc 8a e9 2e bb 4a 0c a5 bc
       0.057697695 -0.019968513 -0.0026689493 -0.020147461
000070 b5 6c 60 bd 59 c5 7f bd eb b7 75 3d fd 2f c0 bc
       -0.05479117 -0.062444065 0.05998985 -0.023460383
000080 de ed 29 3c 8b 11 4e bd ec b1 e5 3b 80 c4 1e bd
       0.010371653 -0.0503097 0.0070097353 -0.038761616
000090 03 88 1f bd 0f 85 29 bc 1a a3 a2 bc 3e fb 7e 3d
       -0.03894807 -0.010346665 -0.019853164 0.062251322
0000a0 73 d3 d5 bc 56 55 31 bd a0 91 3a 3d e6 74 ae 3c
       -0.026101803 -0.043294273 0.045549035 0.021295976
0000b0 82 00 03 3d d8 45 1c 3c 1a 75 2b bc 7d 04 9b bd
       0.031982906 0.009538136 -0.010464931 -0.075692154
0000c0 7f 44 0a bd fb 81 04 bc 5f 6e bc 3c 2f d6 c1 3c
       -0.03375673 -0.00808763 0.023001848 0.023661701
0000d0 30 a0 44 bc 07 2f 4e 3c 49 d5 1f 3c 29 08 9a bc
       -0.012001082 0.012584454 0.009755441 -0.01880272
0000e0 ed 50 10 3d 76 8b bf bc dd 15 53 bd ff c9 93 ba
       0.035233427 -0.02338193 -0.051534522 -0.001127541
0000f0 6e 48 83 3b 56 ac 4f bd 1e f2 75 bd 80 2e 3f 3c
       0.004006437 -0.05070146 -0.060045354 0.011668801
000100 fa 93 3f 3c 63 1a 03 3d 1a 68 1b bd df b1 4f bd
       0.011692995 0.032007586 -0.037941076 -0.05070674
000110 82 25 9b 3c 53 a5 67 bc 12 3f de bc 74 eb 7c 3d
       0.018938784 -0.014138537 -0.027129684 0.061747983
000120 e2 3e 9a bd 7e bc 9b bd a2 cb 02 bd 65 5f de 3c
       -0.07531525 -0.076043114 -0.03193248 0.027145097
000130 0c 95 94 bc 00 a7 4f 3d 36 26 d0 3b f6 9b 0e bc
       -0.018137477 0.050696373 0.0063522113 -0.008704176
000140 a2 30 21 3d e9 f8 4b 3d 35 5b 22 3d 27 23 3b 3d
       0.03935302 0.049797926 0.039637763 0.04568782
000150 2d 00 72 3c 1a 46 39 3d df e5 96 3c ad d3 ae bc
       0.01477055 0.04523287 0.018420158 -0.02134117
000160 28 d8 f6 3c 27 7c 72 3d ed 21 6f bd c0 e3 91 bd
       0.030132368 0.059200432 -0.058381964 -0.07123518
000170 99 13 06 bd 9b 70 6e 3d bd ca dd bc 30 16 9d bc
       -0.032733534 0.058212858 -0.027074212 -0.019175619
000180 0a ed b3 3c 4c e9 43 3d 9b bc 15 3d 4d 6c aa 3a
       0.021963615 0.04782991 0.03655682 0.0013002247
000190 e1 9d 62 3c a8 ca 81 3c 01 9c e3 bc 26 d0 da 3b
       0.013831587 0.015843704 -0.02778435 0.0066776453
0001a0 66 73 e8 3c 5b d8 9c bc be 22 bc 3c 8d c6 03 bd
       0.028375339 -0.019146135 0.022965785 -0.032171775
0001b0 55 1d ad 3b 0d 0c d1 bb 28 f2 a4 bb 03 47 5e bd
       0.0052830377 -0.0063796104 -0.00503375 -0.05426694
0001c0 82 18 1c bc 17 fc 87 bd 72 94 ba 3c df 10 8c 3c
       -0.0095273275 -0.06639879 0.022775862 0.017097889
0001d0 8d 9b d8 bc 67 f2 84 bd 9f b8 0f 3d f4 cf 1d 3d
       -0.02644136 -0.06491547 0.035088178 0.038528398
0001e0 ba 2b 88 3a 65 aa da bc e3 8a 45 3d bc ee 96 3d
       0.0010389008 -0.026692579 0.048228156 0.07369754
0001f0 90 01 59 3d dd b3 fa bc 12 b8 ec bc 7f 4e 66 3b
       0.052980006 -0.030603344 -0.028896365 0.0035142002
000200 e8 ec 24 bb 28 95 57 bd e4 23 30 3c 5d 3f 3f b9
       -0.0025165621 -0.05263248 0.0107507445 -0.00018238784
000210 db 0a 15 3d ae 19 31 3d 2b 58 21 3d df d2 88 bd
       0.036387306 0.04323738 0.039390724 -0.066808455
000220 d0 28 d9 38 5e 00 7e bd 06 3e 4d bd 95 33 59 3c
       0.00010354968 -0.06201207 -0.05010798 0.013256927
000230 14 6b 82 3d 93 76 3d bd e8 29 2f bd da bd 09 bd
       0.0636808 -0.04625566 -0.042764574 -0.033628322
000240 8e ee 6f bc 06 65 7f bd 1b cd 9b bb b1 c6 72 bd
       -0.014644278 -0.062352203 -0.004754675 -0.05927152
000250 4b 13 9a bd 26 40 90 bd ca 04 64 3d b8 eb ba 3b
       -0.07523211 -0.07043485 0.05566863 0.0057043694
000260 69 ed 58 3c e2 59 92 bd ab 5b 06 bd eb d5 8c bc
       0.013240197 -0.0714605 -0.032802265 -0.017191848
000270 06 8c a4 bb b2 e4 3b 3b 4c bc 69 3d 80 ba c2 bc
       -0.005021575 0.0028670249 0.05706434 -0.02377057
000280 c4 92 31 3d 35 4e 7d 3d c4 ff 41 3c 9b 88 b3 bc
       0.043352857 0.061842162 0.011840764 -0.021915725
000290 86 f5 78 bd 37 04 ed bc 78 59 1f 3d b5 99 b5 bc
       -0.060781024 -0.028932674 0.038903683 -0.02216802
0002a0 1b f7 41 3b d5 3f 9b 3c 02 c6 0e bd e2 3a 4c bc
       0.002959675 0.018951336 -0.034856804 -0.012465211
0002b0 85 de 03 bc 57 0f 36 3c 3a 45 48 bd 2f 0a 06 bd
       -0.008048658 0.011112056 -0.048894145 -0.032724556
0002c0 08 a2 44 bd 58 94 c3 3c 1d 03 ef 3c 61 da 03 3d
       -0.048006088 0.023874447 0.02917629 0.032190684
0002d0 9c 93 f0 bb 09 ec 0b 3d 3d 20 07 bd ce 60 31 3d
       -0.007341815 0.034160648 -0.03298973 0.04330521
0002e0 87 db 62 3c 6c bc a2 3c 5a 2e ff 3c a8 b9 25 bc
       0.013846285 0.019865237 0.031150032 -0.010115065
0002f0 b2 ba 0d bb 45 d7 fe 3c 95 73 91 bd 3c d9 54 bd
       -0.0021626172 0.031108508 -0.07102124 -0.051964983
000300 ae f8 09 bd 35 a1 25 bd 52 1c 3f 3d 4e 12 8c 3d
       -0.033684425 -0.040436942 0.046657868 0.06839429
000310 e9 e6 ab bc d1 e1 f3 ba 81 67 00 3d c9 d8 03 bd
       -0.02098413 -0.0018606727 0.03134871 -0.032189164
000320 da 71 06 39 30 b0 9b 3c b1 84 96 3c 9c 4c e4 3c
       0.00012821649 0.019004911 0.018373819 0.027868561
000330 8e 9a 03 bd 44 d7 20 bd 32 47 ab 3c 75 f2 87 bc
       -0.032129817 -0.039267793 0.020907972 -0.016595105
000340 e1 40 b2 bc 14 5d 4e bb 48 a0 9f 3c 13 1f 43 bd
       -0.021759452 -0.0031488584 0.019485608 -0.047637057
000350 d0 94 9d bd f7 18 49 3c 46 55 15 3d e6 bc 71 3d
       -0.07694399 0.0122740185 0.036458276 0.05901804
000360 02 70 1d 3c 57 9e aa 3c df ee 15 3c 7e cf 84 3d
       0.009609224 0.020827455 0.00915119 0.064848885
000370 93 20 1b 3d c3 79 14 bd d5 06 0b 3d 9c 93 3e 3b
       0.037872862 -0.036248934 0.033942062 0.0029079681
000380 6a 61 6c 3d e1 c7 98 bc 90 4b 21 3d 1c 1c 37 bd
       0.05771009 -0.018649997 0.039378703 -0.04470454
000390 4d 65 69 3c 85 30 28 3d a7 1c 0e 3d 5a 2c 35 bd
       0.014245343 0.041061897 0.034695294 -0.04423175
0003a0 a0 a8 40 3c 78 7d 49 3c 80 a8 41 bd ab b5 70 bc
       0.011758953 0.0122979805 -0.047279835 -0.0146917505
0003b0 ef 9d 43 3d 13 c1 24 3d d8 2c 31 3c 95 c7 1e 3c
       0.04775804 0.040223192 0.010813914 0.009691139
0003c0 b4 7e 67 3d 88 06 54 3d 7b e8 19 bc 52 5b 25 bb
       0.056517318 0.05176404 -0.009393807 -0.0025231433
0003d0 d2 df 53 bc cc b9 1e 3c 52 28 35 bd ea c3 10 3d
       -0.012931781 0.009687852 -0.044227906 0.03534309
0003e0 e5 9e e8 bc 20 43 04 3d 3d 45 ba bb 3d 37 0d 3d
       -0.02839608 0.032290578 -0.0056845234 0.034476507
0003f0 f8 aa 21 3a 5e 67 3a bd 4c bc e2 3c a9 b8 23 3d
       0.0006167139 -0.045508735 0.027677678 0.039971028

conv3.0.bias f4 [64]
000000 90 50 d3 3c 5c 60 a5 bc cf 55 dd ba 90 12 a6 bc
       0.025795251 -0.02018755 -0.0016886535 -0.020272523
000010 81 8d 72 bc 6b 7e 14 bd c6 1f 07 bd f0 af 89 bb
       -0.014804245 -0.036253374 -0.032989286 -0.0042018816
000020 4f d3 68 ba 8f ed e5 3b 22 6e de bc 0f ce 2f bd
       -0.0008881585 0.0070168446 -0.027152125 -0.042921122
000030 e8 75 ab bc 70 15 bc 3d 14 75 71 bd 9f fd 24 bc
       -0.020930246 0.091837764 -0.058949545 -0.010070234
000040 37 7d 61 bc 64 1f 9b 3d 33 51 e9 bb 76 05 e9 3c
       -0.013762764 0.07574347 -0.0071202754 0.028444987
000050 bc 6d 17 bd ee ec 63 bc f7 14 5f 3d e1 82 be bc
       -0.036969885 -0.013911469 0.054463353 -0.023255767
000060 aa 6c b5 bc 14 37 c1 3a 40 06 11 bd cd 2a 3a ba
       -0.022146542 0.0014741146 -0.03540635 -0.0007101715
000070 e6 f1 c1 bc 85 99 05 bd 43 b4 52 3d ec fa 74 bd
       -0.023674916 -0.03261711 0.051441442 -0.05980961
000080 d8 11 3d bc 29 9a 31 bc 53 c0 b6 3d 34 4d d8 bb
       -0.011539899 -0.010839977 0.08923402 -0.006601
000090 95 33 cd bc be a0 77 bb 1d d2 eb bb a3 09 11 bd
       -0.02504901 -0.0037785019 -0.0071966783 -0.03540958
0000a0 d6 47 54 bd 9d 8c 6b bc 30 46 39 bc 13 ef c9 bc
       -0.05182632 -0.014376787 -0.011308238 -0.024650132
0000b0 d3 02 7b bc c7 08 74 bc 20 a2 e0 bc 5f 20 2c bd
       -0.015320498 -0.014894671 -0.027421057 -0.04202306
0000c0 77 c8 9c 3c 35 7c 78 bb 60 42 10 3c 41 82 b5 bc
       0.019138558 -0.003791583 0.0088048875 -0.022156836
0000d0 ae 66 aa bc 5a bf b5 bc 77 d9 cc bc 3e 75 cf b9
       -0.020800915 -0.02218597 -0.025006039 -0.0003956947
0000e0 49 86 f0 3d cb 49 41 3d c3 2e 0d bb fe d9 7d bc
       0.11744363 0.047189515 -0.0021542765 -0.015493868
0000f0 26 6a 3f bd 65 54 55 bc 00 69 b2 bc f8 3a ba 38
       -0.04673209 -0.0130206095 -0.021778584 8.880155e-05

conv4.0.weight f4 [128, 64, 3, 3]
000000 89 f0 91 3d 87 f4 c3 bc 4c dd 54 bc d6 6c da ba
       0.071259566 -0.02392031 -0.012992214 -0.0016664516
000010 e6 73 33 3b 82 a7 b7 bc 80 7f 64 ba 44 3d 08 bd
       0.0027382313 -0.022418741 -0.0008716509 -0.033261552
000020 10 73 87 3c 87 bf 06 3d e8 03 f0 bb ea 19 7a bd
       0.016534358 0.0328975 -0.0073246844 -0.06105987
000030 c0 c2 4e bc 51 7c 3f bc 2b ea 5e bd 95 97 d4 3c
       -0.012619674 -0.011687354 -0.05442254 0.025951186
000040 c4 b1 0e bd 9c 94 4e bd 6f a2 53 3d b7 03 9c 3d
       -0.0348375 -0.050434694 0.05166858 0.07617896
000050 73 d1 e1 bc f2 fe ff bb cf 75 b1 3c ab 8e 9e bc
       -0.027565693 -0.0078123743 0.02166262 -0.019355139
000060 f4 c3 f2 bc 6f c9 5f bc 9b c1 35 3c 57 a9 75 3d
       -0.029634453 -0.013658865 0.011093522 0.05997595
000070 3a d7 0e bb e0 fd ff 3b 98 70 29 3c 4c 8c 24 3d
       -0.0021795765 0.0078122467 0.010341786 0.04017286
000080 7d 58 99 3c f3 72 26 bc fc f4 1f bc f8 7f 83 bd
       0.018718952 -0.010159242 -0.009762999 -0.064208925
000090 07 86 bf 3c 92 d0 34 bb 4c 44 79 3a 42 94 05 bd
       0.023379339 -0.0027590138 0.0009508773 -0.032612093
0000a0 cc e7 6f 3c e2 48 bd bc c2 2d 2d bb c6 3b d6 3c
       0.014642667 -0.023106042 -0.002642498 0.02615155
0000b0 a9 1b 33 bb 46 4c 85 3d 02 be 2e 3d 5d 32 fc bc
       -0.002732972 0.06508689 0.042661674 -0.030785734
0000c0 d1 fb 2d bc a9 d0 cb 3b 8d 17 2c bd fc b1 36 3c
       -0.01061912 0.0062199426 -0.042014647 0.011150833
0000d0 ea 9c 55 bd 69 ed 0d bd 17 99 27 3d 2b 7b 14 bc
       -0.052151598 -0.03465024 0.040917482 -0.009062569
0000e0 69 47 88 bc ed 74 bb 3c 96 5d 57 3d e0 1e a6 3c
       -0.016635614 0.022882903 0.052579485 0.020278394
0000f0 1e 0f 30 3c 12 25 18 3c 7c 27 16 bd d0 1b df 3c
       0.010745792 0.009286182 -0.03665875 0.027234942
000100 8c 58 d3 bc c9 88 6f 3c 6e 07 85 3c e5 db eb bc
       -0.025799058 0.0146200145 0.016238894 -0.028791377
000110 c9 84 1d bd 95 83 bb bc 84 e7 f0 bc 0a 6b d1 bc
       -0.038456712 -0.022889892 -0.02940727 -0.025563736
000120 10 79 5f 3a ea de b9 bc 69 0e 1c bd 6b e0 08 3d
       0.00085248146 -0.022689302 -0.03809968 0.033417147
000130 0c c6 a0 ba 31 62 7e bd 07 f4 fc bc 1e aa a9 bb
       -0.0012266054 -0.06210536 -0.03087808 -0.0051777503
000140 10 a4 3e 3c 05 3c cc bb e1 0a 0d 3d 37 e4 92 bc
       0.011635795 -0.006232741 0.034434203 -0.017931087
000150 32 ae 02 bd c4 db a4 bc 17 5e d8 bc ca c1 0c bd
       -0.031904407 -0.020124324 -0.026412053 -0.0343645
000160 48 7f bd bc 2d 89 13 3d 71 75 1a bb 87 e4 ea bc
       -0.023131981 0.036019493 -0.0023568536 -0.028673423
000170 a7 db 3a 3d 7e 5b b0 3c 2e ce 20 3b cd b0 ea 3c
       0.045619633 0.021528002 0.0024536955 0.028648758
000180 41 bf 80 3c a6 a9 27 3c 76 3b a5 3b cd 92 86 bc
       0.015716197 0.010233318 0.0050424887 -0.016427422
000190 8a 01 23 bd 4e 9a ca bb 3a 30 a8 3c 03 74 aa bc
       -0.03979639 -0.0061829453 0.020530809 -0.020807272
0001a0 17 96 0d 3b e3 7f 0b 3d 66 64 3b bd 24 66 71 3c
       0.0021604353 0.03405751 -0.045750044 0.014733825
0001b0 86 4f 86 bb aa 32 d8 3c e8 cb 7c 3c 3b 5d 6d 3c
       -0.0040988354 0.026391346 0.015429474 0.01448756
0001c0 66 1d d8 3c 3b d1 ea bc f4 5b 47 bd 02 ff 9f 3c
       0.026381206 -0.028664222 -0.048671678 0.019530777
0001d0 07 54 8c bd b7 f4 52 3d 3c b4 a1 bc 56 30 6f 3a
       -0.068519644 0.05150291 -0.019739263 0.0009124329
0001e0 37 ea 64 3c 93 21 82 3a aa 1a ec 3c 03 fe 14 3c
       0.013971857 0.0009928219 0.028821308 0.009093764
0001f0 28 84 2b 3c 95 f3 07 3c d0 d3 f5 bc db 2b 5e 3c
       0.01046852 0.008297821 -0.030008227 0.013560261
000200 cf 0c 1d bd 0b e2 89 bb 52 aa 0d b9 44 cf 78 3c
       -0.038342293 -0.0042078546 -0.00013510257 0.015186135
000210 d5 83 9e bc 75 6e 20 3d bc 1d 70 bb c9 71 0c 3d
       -0.019349972 0.03916784 -0.0036638817 0.0342882
000220 8e 07 c6 3c 9e 7e aa bc 04 e4 0b 3c 6b 92 98 3c
       0.024173524 -0.020812329 0.00853825 0.018624505
000230 7d 85 3f bc 68 f3 15 bd 0a 58 80 3c c9 07 ef bc
       -0.011689541 -0.036609083 0.01566698 -0.029178517
000240 bb 1c 48 3c 91 f9 a8 3b 60 39 de bc 44 6d bb bb
       0.012213881 0.0051567038 -0.027126968 -0.0057198126
000250 a3 68 b5 bc 7a 0e a7 bc 8f 99 1b 3c 3e a8 18 3d
       -0.022144621 -0.020392645 0.00949706 0.037269823
000260 ec 8b 88 3b 20 1a 13 bd 79 24 2e bd d8 dd b0 3c
       0.0041670706 -0.035913587 -0.04251525 0.021590158
000270 81 72 94 3d 15 d0 27 3b f6 41 d6 3a f8 13 55 bc
       0.072484024 0.0025606204 0.0016346562 -0.013005249
000280 16 80 a4 3c 7c eb 40 bd af 70 d1 bb 77 95 b2 3c
       0.020080607 -0.047099575 -0.0063916068 0.021799786
000290 15 d4 14 3c a7 b7 40 bc 3a 2b 1e bc 66 7c ab 3b
       0.009083767 -0.011762536 -0.009653861 0.0052333353
0002a0 b3 1c 86 3c 0f d1 67 bc 57 cd 32 bd 66 8b f5 3c
       0.016371107 -0.014148965 -0.04365286 0.029973697
0002b0 be 5e ef bc e0 9a f8 3b a3 87 db 3c 8c 04 98 3c
       -0.029219981 0.007586822 0.026798075 0.018556856
0002c0 ff 51 04 bd 7a f7 bb 3a bc e6 c6 3b 21 66 92 3c
       -0.03230476 0.0014340722 0.006069986 0.017870964
0002d0 32 31 b9 3b 21 4b 13 bc 1b c0 f6 bb 99 63 26 3d
       0.0056516165 -0.00899008 -0.007530225 0.040622327
0002e0 a5 b8 19 3d 77 81 93 bb bc 7a 94 3c fc 86 18 3d
       0.037529606 -0.0045015174 0.01812493 0.037238106
0002f0 48 67 20 bd a0 d6 e7 bb 4a de 16 3d 11 3b d6 bc
       -0.039160997 -0.007075146 0.036833085 -0.026151212
000300 da d5 05 3d 88 7d 09 3d 1b 69 0a bd 5d 66 ff bb
       0.032674648 0.03356698 -0.033791643 -0.007794185
000310 56 45 f9 bc 3d 4f 06 3c 31 de 16 bd 6f 4a 08 3d
       -0.03042857 0.008197603 -0.036832992 0.03327411
000320 d0 4b 58 ba a9 80 45 3d b5 2a 32 bd de 82 b2 bc
       -0.0008251043 0.048218403 -0.04349776 -0.021790918
000330 5d 70 81 3d 05 ad be bc a6 3b 79 bd bf 5b 84 3a
       0.0632026 -0.023275862 -0.0608479 0.0010098143
000340 3e c7 a2 3c 59 68 17 3d d7 c9 8c 3b a9 84 78 3c
       0.019870397 0.036964748 0.004296522 0.015168347
000350 cd 87 8e 3c 66 af 04 3d 63 9c e2 bc 4a cc d9 bb
       0.01739874 0.032393835 -0.027662462 -0.0066466676
000360 a8 db a9 3b aa b5 56 bc c0 67 53 bb ec 67 1a bd
       0.005183656 -0.0131048355 -0.0032257885 -0.037696764
000370 b6 11 1d bd d1 c0 fe 3c ce 34 79 bb a7 33 13 3d
       -0.03834697 0.031097801 -0.0038025859 0.03593793
000380 3c c6 10 3d e0 87 b5 bb 51 9c 26 3d 7c 9e bf 3c
       0.0353453 -0.005539879 0.04067642 0.023391
000390 02 38 09 bc 02 07 52 3c a9 28 88 3c 9b de 2f 3d
       -0.00837517 0.012819054 0.01662095 0.042936902
0003a0 32 b4 78 bc e2 09 ff 3c 27 b9 ef 3c 4d f2 75 bc
       -0.015179681 0.031132642 0.029263092 -0.015011382
0003b0 53 22 1b 3d d4 6d 1a 3c 30 44 fe bc 27 6f 39 bc
       0.03787453 0.009425599 -0.031038374 -0.011318005
0003c0 3c e8 67 3c d3 d2 7a 3c 07 7f 81 bc d2 14 2d 3d
       0.01415449 0.0153090535 -0.015807642 0.042256184
0003d0 60 51 d5 3a d5 2f 18 bd 7a 78 75 bc 13 50 16 3d
       0.0016274862 -0.03715499 -0.014982337 0.03669746
0003e0 92 7a 55 bc eb 1a 07 ba a9 58 03 bd 29 73 08 bd
       -0.013029711 -0.00051538524 -0.032066975 -0.03331295
0003f0 bc 13 84 3c e0 ce 06 3d 86 a3 1f 3d 4b ba 32 bc
       0.016122691 0.032912135 0.038974307 -0.0109086735

conv4.0.bias f4 [128]
000000 d4 37 b3 bc 92 51 25 bd e9 18 29 bd df 82 fa bc
       -0.021877207 -0.040360995 -0.04128352 -0.030579982
000010 85 2b 1f bc 9b be 23 3e 21 8d 43 bd a9 0b 07 3d
       -0.009714966 0.15990679 -0.047742013 0.032970104
000020 65 db a4 bc 03 a6 2e 3d cb 42 ef 3d 5d e5 31 bd
       -0.020124147 0.04263879 0.116826616 -0.04343163
000030 ab 76 49 bd af 35 3b bc fd d2 28 bc 01 ea da 3c
       -0.049185436 -0.011426373 -0.01030421 0.02672291
000040 83 2d ca 3b a3 56 99 bc 63 54 d0 bc 7f d9 3d 3d
       0.006169976 -0.01871807 -0.025430864 0.04635
000050 b7 c5 41 3a 3d 6e df 3d c3 7b 5b 3d 78 37 72 bc
       0.00073918275 0.10909698 0.053584825 -0.014783733
000060 ef ff d1 3b 59 90 e0 bc 96 bd 65 b9 7f 35 22 bd
       0.0064086835 -0.02741258 -0.00021909768 -0.0396018
000070 58 31 95 3c e2 97 1a 3d 59 47 05 bd 44 74 66 bd
       0.018212005 0.037742503 -0.032538746 -0.056263223
000080 08 9d 01 3d d4 98 0c bc 09 c5 0d 3c 22 e3 14 bc
       0.031643897 -0.008581359 0.008652934 -0.009087356
000090 a8 67 20 bd e0 12 0d bd ae 95 b8 bc 56 09 f3 bc
       -0.039161354 -0.03444183 -0.02253231 -0.029667538
0000a0 5d d0 83 bc bb 93 96 3d cd 28 a2 bc fd 97 a6 bc
       -0.016090566 0.07352396 -0.019794846 -0.020336146
0000b0 9e 35 22 bb 38 46 db 3d 2b a4 01 bd 20 88 e3 3c
       -0.0024751197 0.107067525 -0.031650703 0.02777487
0000c0 ff cd 0d bc 32 4d 05 3a ab fd 31 bd d0 cb dd bb
       -0.00865507 0.00050850504 -0.043454807 -0.006768681
0000d0 69 74 f6 bc b6 89 be 3d cd 4c 9d bb 37 e6 1a 3e
       -0.030084806 0.0930361 -0.004800415 0.15126882
0000e0 2d 81 36 bd b4 24 74 3d 0e e5 b8 bc f5 f0 43 3e
       -0.044556785 0.059605315 -0.02257016 0.19134887
0000f0 05 49 48 3d dc e1 0e bc 0e 98 85 3d 59 36 14 bc
       0.04889776 -0.008720841 0.06523143 -0.009046161
000100 e8 0c 0c 3c 90 e8 64 bb a2 fc 87 bc ab b1 06 bd
       0.008547999 -0.0034928657 -0.016599957 -0.03288428
000110 6e 3c 64 3c 89 c5 0b bc da b8 67 bd a0 7d 62 bb
       0.013930423 -0.008530983 -0.056572773 -0.0034559742
000120 fd 75 0a bd 2d e5 db 3d ff ac 18 3e 6f a7 11 3d
       -0.03380393 0.10737071 0.14909743 0.035560068
000130 50 b2 33 bd 35 5b 0c bb 7d ba 83 3b 02 45 2d bd
       -0.043871224 -0.0021416668 0.004020034 -0.04230214
000140 94 64 37 3c 6f bd 0c 3e e5 94 35 bd 3c c8 82 bc
       0.011193413 0.13744138 -0.04433145 -0.01596462
000150 39 13 a7 b9 53 3a 23 bc 54 72 27 bc cd c6 a7 3c
       -0.00031867044 -0.009962636 -0.010220129 0.020480538
000160 19 91 44 3c fa f0 c4 3c 1c 89 c1 bc 01 34 21 bc
       0.011997485 0.024040688 -0.02362495 -0.009839059
000170 9e ce 32 bd f2 31 13 bc 2e 12 0c bb 91 05 04 bd
       -0.043654077 -0.008984076 -0.002137314 -0.03223187
000180 ec 90 83 bc 61 b8 29 3d 03 ac 08 bc 25 18 25 bd
       -0.016060315 0.041435603 -0.008341792 -0.04030623
000190 22 5c 63 bb c5 aa cd 3c 2b 7a 15 3d ef a4 8e 3d
       -0.0034692367 0.025105843 0.03649346 0.06965052
0001a0 90 ed 06 bb 88 fe 8b bc 25 d2 72 bc 27 1e aa bc
       -0.0020588376 -0.017089143 -0.01482061 -0.02076633
0001b0 21 ab 93 3c 79 fb 2a bd 8a 02 46 bc 3e 25 57 3a
       0.018025937 -0.04174373 -0.012085566 0.00082071486
0001c0 d1 bf c0 bc 66 4e 8e bc 0d aa 56 bc 96 4d 97 bb
       -0.023528965 -0.017371368 -0.013102067 -0.0046174033
0001d0 ec 31 48 bc d1 53 0e bd de 13 b6 3d b6 49 26 3c
       -0.012218934 -0.034747902 0.08890508 0.01014941
0001e0 e0 58 86 bb 3a 6c 6b bd 14 2b d0 3d 2d 24 80 bc
       -0.00409995 -0.05747626 0.101644665 -0.01564225
0001f0 6e 2c 91 bc b1 e0 01 3b bd 9a ef bc 1b ae 60 3d
       -0.017721381 0.0019817764 -0.02924859 0.05485354

linear.weight f4 [10, 2560]
000000 a2 90 bc bb 46 84 32 3c fe e2 97 ba b9 0a a2 3c
       -0.0057545463 0.010895794 -0.0011588035 0.019780504
000010 7e 84 bd 3c 92 b9 dc 3a 3e 59 10 bc 94 47 96 3b
       0.023134466 0.0016839972 -0.0088103395 0.0045861695
000020 6f ef 60 3b e1 53 89 3c 69 20 8e 3b 69 b6 61 bc
       0.00343224 0.01676363 0.0043373597 -0.0137764
000030 29 e9 5d 3c 0b f2 58 bc e8 73 bd bc ed 24 d9 bc
       0.013544359 -0.013241301 -0.023126557 -0.026506865
000040 22 98 65 3c 80 84 e8 3b 9b 80 8f 3b 74 6b 1f 3c
       0.014013322 0.0070958734 0.0043793446 0.009730209
000050 b8 1e a1 3b 18 05 11 3c 25 4b 88 3b a0 3d 01 bb
       0.004916992 0.008851312 0.0041593486 -0.001972057
000060 2e 1b 3d bc 26 e1 ed bb f8 c3 ad 3c d7 92 82 bc
       -0.011542125 -0.007259506 0.02121161 -0.01593916
000070 04 c7 64 bc 87 8d ad bb 19 2b 66 bc fe 26 98 bc
       -0.013963465 -0.0052964124 -0.014048361 -0.01857328
000080 58 17 29 3b 0f 35 3a bc 05 6f 82 3c 9e 12 ab bc
       0.0025801267 -0.011365189 0.015922079 -0.0208829
000090 19 35 f9 3c cf 64 e1 3c 10 c3 04 bc 88 88 a6 3c
       0.030420827 0.02751389 -0.008103147 0.020328775
0000a0 aa 8c b0 3b 7c 02 ba b9 c7 17 98 3c 0c e0 51 bc
       0.005387862 -0.00035478536 0.018566025 -0.012809765
0000b0 8a a1 15 3c 43 60 c9 3c c2 30 58 3c 52 23 5c bc
       0.009132752 0.024582034 0.0131952185 -0.013436155
0000c0 80 cc d1 bb 8a 7e cd bb 25 4d 80 3a c0 69 01 bc
       -0.006402552 -0.006271188 0.0009788616 -0.007898748
0000d0 96 b6 2b 3b ef ca 36 bc 93 06 3f bc e4 33 8d 3b
       0.002620136 -0.011156782 -0.011659282 0.0043091644
0000e0 e5 cf 41 bc bc 35 cc 3c 84 54 bd 3c 7f 9f 72 3c
       -0.011829351 0.024927966 0.02311159 0.014808535
0000f0 61 27 e0 3b fb f0 98 3c 97 c5 55 3c 83 57 c2 3c
       0.006840632 0.018669596 0.013047597 0.02372337
000100 2a 75 8c bb 9d 7c 81 bb 72 cb b6 ba 24 8b 57 bc
       -0.004286428 -0.0039516226 -0.001394613 -0.013155732
000110 31 55 85 3c 85 f7 86 3c c7 77 c7 bc 27 a1 76 3a
       0.016275974 0.016475448 -0.024349106 0.0009408169
000120 a2 d9 8f 3c a8 2c 3e 3b 71 19 a8 3c 15 01 55 3b
       0.01755983 0.0029018316 0.020519944 0.0032501866
000130 d8 c7 04 3c 20 3a 6a 3c 3a f4 94 bc 68 1f 57 bc
       0.008104287 0.014296085 -0.018182863 -0.013130046
000140 b3 16 1e bc 13 ee 49 3c d3 cb 82 ba 67 4f ce bc
       -0.009648967 0.012324828 -0.0009978957 -0.025184346
000150 48 16 87 3b 1c ff 4b bb ea 79 47 3c cf 38 06 3a
       0.004122529 -0.0031127399 0.012175063 0.00051201595
000160 b7 fb 1c bc af 20 43 bb eb dc b7 bb 7c ea b0 3c
       -0.009581498 -0.002977412 -0.0056110523 0.021596186
000170 54 e4 ee bb e2 61 10 bc 78 93 53 bc 78 ba f2 bb
       -0.0072904024 -0.0088124 -0.012913577 -0.0074074827
000180 ee cd b3 3c 8e d4 62 3c dd 6f 69 3c ee 7d 1b 3b
       0.02194878 0.013844622 0.014247862 0.0023726183
000190 9e f6 7f bd 18 4f ae bd c2 6e e2 bd fb af 04 be
       -0.06249105 -0.0851118 -0.110562816 -0.12957756
0001a0 41 bb 93 bd 6d c8 57 bd 7a f9 ba bc 45 8a 1e bd
       -0.0721345 -0.052681375 -0.022824038 -0.038706083
0001b0 89 fe 72 bd 88 be eb bd cc f6 a1 bd 0d 31 19 be
       -0.059324775 -0.1151095 -0.07908401 -0.14960118
0001c0 38 ce 5f bd f9 f7 d2 bc 49 03 93 bd a6 df 9c bd
       -0.054640025 -0.025753008 -0.07178361 -0.07659845
0001d0 16 cc 96 bd 65 0e 09 be 0a e3 12 be da b9 ef bd
       -0.07363145 -0.13384397 -0.14344421 -0.1170537
0001e0 0c d4 18 3b 34 d9 bf bb 65 e3 9a 3c 1e 4c af bc
       0.002331975 -0.00585475 0.018907258 -0.0213986
0001f0 59 3d 3b 3c 2f 19 42 bc 53 55 46 bc 02 a5 0a bc
       0.011428201 -0.011846825 -0.012105304 -0.0084621925
000200 1e f2 b7 bb 4b 00 31 3c 7a 5e a5 3c 98 c6 64 bc
       -0.0056135794 0.0108032925 0.020186651 -0.013963364
000210 cd 2d ae 3c a9 c5 bf 3b 93 d1 86 3b 77 85 d8 3b
       0.021262074 0.0058524203 0.0041143387 0.006607707
000220 4b a5 e2 3b 6e e6 15 3c 01 00 4b bc 40 78 94 3c
       0.006916677 0.009149177 -0.012390138 0.018123746
000230 5a 5c 06 3c b9 e6 9e 3c 3d 90 b0 3b e4 4a 9c 3c
       0.008200729 0.019397127 0.0053882883 0.01907868
000240 8c 0e 87 bc b0 74 4a bc 50 54 1b bc 6a 6b 3f ba
       -0.016486429 -0.012356922 -0.009480551 -0.0007302078
000250 02 7d 2d bc 57 9f 95 bc d5 58 ed bb 46 51 cf bc
       -0.010588886 -0.018264456 -0.0072432556 -0.025307309
000260 67 25 e3 3b f7 3b 45 3c ba 1c 5e bc c7 78 1d bb
       0.006931949 0.0120382225 -0.013556654 -0.0024028288
000270 fc 43 d0 3c 24 02 1b 3d ef 2e 49 bc c1 d1 69 ba
       0.025423042 0.03784384 -0.012279256 -0.00089195004
000280 28 81 93 3c 6e 7c fa bb 3a ff 4c bc ed 07 84 3c
       0.018005922 -0.0076442277 -0.012512023 0.01611706
000290 45 a3 ff bb 9f fc d1 bb 51 1b 44 3b 3e 7f 3e 3c
       -0.0078014457 -0.0064082886 0.0029923508 0.011627017
0002a0 ed 03 5e bc 53 a3 bb 3c 87 c7 ca 3c 9f f2 17 3c
       -0.013550741 0.022905027 0.024753345 0.009274154
0002b0 f8 18 5f bb e5 2f d5 3b 46 42 b7 3c 94 b3 ea 3b
       -0.0034041982 0.0065059536 0.022370469 0.0071625207
0002c0 2b 58 76 3c 94 cd 2f bc 1b cd 97 bb a2 7f 35 ba
       0.015035669 -0.010730166 -0.004632605 -0.0006923621
0002d0 a4 d1 fb bc 68 e2 02 bc 1f c5 fe bc a5 b7 88 bb
       -0.030739613 -0.00798855 -0.031099854 -0.0041722828
0002e0 64 ae b2 3b f1 f3 8e 3c ee ef 5e 3b de 71 58 bb
       0.005452918 0.017450305 0.003401752 -0.0033026855
0002f0 e5 67 30 3c ee 27 ba 3c 3d 71 58 bb 00 92 5d 3b
       0.010766958 0.022724118 -0.003302648 0.0033808947
000300 10 bf 49 bc a0 40 bc 3b 18 dd 38 bc ad e1 6c bb
       -0.012313619 0.0057450086 -0.011283182 -0.0036145255
000310 13 f7 81 bd bf f5 b7 3c 2a df ce ba 7b b5 b5 3b
       -0.06345954 0.022456048 -0.0015783061 0.005545316
000320 7d 97 48 bd aa d4 86 3c 39 b6 c0 3a b8 3a 05 3c
       -0.048972595 0.016458828 0.0014702744 0.008131675
000330 0b be 26 bb 40 3f 90 3c 96 23 9c bb 42 d4 4b bc
       -0.0025442864 0.017608285 -0.0047649844 -0.012440743
000340 4c 6b b0 bb ff 20 60 3c a9 99 1d 3c 22 e8 d0 3b
       -0.0053838845 0.013679742 0.009619155 0.0063753286
000350 d4 1c 66 bd de ff 18 3c 75 b8 69 3c 92 71 1a 3c
       -0.056179836 0.009338347 0.014265169 0.009426491
000360 48 96 d1 bc eb 2c 89 bd 49 c8 85 bc 2f cf 16 bd
       -0.025584355 -0.066980205 -0.016330855 -0.03681868
000370 ec c4 84 3c f1 8c f5 ba 63 66 ad 3c eb e0 be 3c
       0.01620718 -0.001873402 0.021166986 0.023300609
000380 8a a7 2b 3c ad 4f d9 3a ff f2 03 3a 0a 5b 00 bc
       0.010476956 0.0016579531 0.00050334627 -0.007834205
000390 25 9f 7d bc 19 5f f2 bc 41 07 60 bc 9d 76 d2 bc
       -0.015479838 -0.029586362 -0.0136736045 -0.025691325
0003a0 27 45 e5 ba 32 28 f6 3b 2b d9 4e bc 4a 9b 99 3b
       -0.0017491922 0.007512116 -0.012625019 0.0046877014
0003b0 67 40 e4 3c be 9a 99 3c 92 52 33 3d 35 2b 20 3d
       0.02786274 0.018750545 0.043779917 0.039103705
0003c0 15 67 91 3b b0 66 0d bd 81 67 93 ba 52 34 02 3b
       0.004437337 -0.03452176 -0.0011246057 0.001986761
0003d0 59 9d 42 3b 9c 25 fb 3b fe 7d 41 3c 92 17 21 3c
       0.0029695837 0.0076643955 0.011809824 0.00983228
0003e0 15 38 94 ba dd 26 3b 3b 0b 5f ec bc 1b f9 42 bc
       -0.0011308218 0.00285571 -0.028853914 -0.011900212
0003f0 17 8d 65 bc 2b a1 2f bc 9f 6a 19 bc 68 e6 9e bb
       -0.014010689 -0.010719578 -0.009363799 -0.004849244

linear.bias f4 [10]
000000 12 38 1b bc 65 30 3b bd 1b 7c 55 bb e3 bc 14 3d
       -0.009473817 -0.04570045 -0.0032575193 0.03631295
000010 ed cd f9 bc 99 61 f1 bc 5f dd 1e bd 09 f4 55 bd
       -0.0304937 -0.029465484 -0.038785335 -0.052234683
000020 d1 0d 81 3d 07 c4 d8 bc
       0.063014634 -0.02646066
